PMC/modelo.pth (torch, 674697 bytes, 6 tensors)

weight f4 [256, 500]
000000 7d 6c 96 bd 49 c8 3b 3d 89 09 23 3d f2 22 8f 3d
       -0.07344911 0.045845304 0.039804015 0.06989087
000010 12 1b a5 bd 6e 1e 62 3d cf 5c e0 bd 1d e8 eb bd
       -0.08061804 0.0552048 -0.10955202 -0.115188815
000020 13 21 94 bd f2 02 f6 bd 75 8d e8 bc 67 4a d4 3c
       -0.07232871 -0.120122805 -0.028387764 0.025914384
000030 81 76 93 3d 63 9f bb bd 09 c9 05 3d df d5 80 be
       0.07200337 -0.0916126 0.032662425 -0.2516317
000040 3b 1c 19 bb 84 5b ca bc 51 9b d1 3c b4 91 6b be
       -0.0023362774 -0.024701841 0.025586756 -0.230048
000050 01 75 3a 3d 40 af 10 3d 76 5a c2 bd 0d 64 43 3e
       0.04552174 0.03532338 -0.0948991 0.19081135
000060 1e 19 a5 bd 2c b2 e3 3c 40 e7 6d be 8a a6 25 be
       -0.08061431 0.02779492 -0.23232746 -0.16176811
000070 f2 b1 83 be 42 15 b3 bd 0d e3 f6 bd ed a2 11 be
       -0.257217 -0.08744289 -0.12055025 -0.14222308
000080 44 ac d2 bd 21 c6 02 bd 0c 9e 20 bd 3f e3 e5 bd
       -0.10286763 -0.03192723 -0.039213225 -0.112249844
000090 6d f1 02 be de cc 5b 3b 3b 15 9b bd ef aa e7 bd
       -0.12787409 0.0033538858 -0.07572409 -0.113119
0000a0 69 a6 78 bd 13 98 18 3e 1a 2d cf bd a5 ba ed bd
       -0.060705576 0.14901762 -0.10116024 -0.11607865
0000b0 c1 c2 21 be d9 f0 6b bd 6a b6 92 bd 0f 9f 19 be
       -0.15796949 -0.057602737 -0.07163699 -0.15002082
0000c0 6d 20 2d be 14 a1 2d be 2d 83 21 be 95 c3 1e bd
       -0.169069 -0.16955978 -0.15772696 -0.03876074
0000d0 d3 d4 8b bd 4f 5f c5 3d 35 f1 73 bd b3 8f be 3d
       -0.068277024 0.09637319 -0.059556205 0.09304752
0000e0 ca df 43 be 5d 97 aa bd 1c aa 67 bd 75 66 fc bd
       -0.19128338 -0.083296515 -0.056558713 -0.1232423
0000f0 70 cb f5 bc 1f b4 74 3c 3d bd 1b be c7 09 22 3d
       -0.030004233 0.014935522 -0.15208907 0.039560106
000100 56 10 4b be 7f f3 13 be b1 e4 53 bd b9 29 52 be
       -0.1983045 -0.14448355 -0.05173177 -0.20523728
000110 59 28 c0 bd 55 38 70 be c6 46 1e be 1d 27 d8 3c
       -0.09382696 -0.23458989 -0.15456685 0.026385838
000120 5a 20 c5 bd 02 d3 73 3d 33 e2 ce bd 09 b8 a5 bd
       -0.09625311 0.059527405 -0.10101738 -0.080917425
000130 df 99 cf bd dc 7f 2e be 01 f3 55 be ff 94 1a be
       -0.101367705 -0.17040962 -0.2089348 -0.150959
000140 34 a8 35 be 72 ea be bd 7e 56 42 be e5 22 12 be
       -0.17739946 -0.09322061 -0.18978307 -0.14271124
000150 21 c4 fc bd c7 10 94 be f7 16 12 be 2d 25 a1 3d
       -0.12342096 -0.2891905 -0.14266573 0.07868419
000160 f6 9f 76 bd 2a 36 8f bd c5 fa 0f be 30 df 49 3c
       -0.060211144 -0.06992753 -0.14060505 0.012321278
000170 a2 e1 76 bc a7 3e 05 be e4 b3 be bd 87 d5 88 bd
       -0.0150684435 -0.13012181 -0.09311655 -0.06681352
000180 9e 6c 8b bd 50 54 0a be 50 c3 a9 bd e4 52 66 be
       -0.068078265 -0.13508725 -0.08289206 -0.22492558
000190 d9 8b 94 bd b0 97 15 be 02 4b 9b bd f2 b6 6b be
       -0.07253236 -0.14608645 -0.07582666 -0.23019007
0001a0 ca f5 cb 3c d5 72 04 3d a3 34 36 bd 9a ea ff bd
       0.024897475 0.032336075 -0.044483792 -0.124959186
0001b0 3c f7 96 bc d9 6d ad bc 73 6d bb 3c 72 b9 56 be
       -0.018428437 -0.021170544 0.022879338 -0.2096918
0001c0 5b 82 c1 3c 45 ad 8c 3d 5a 16 db 3c 58 a2 a9 bc
       0.023621729 0.06868986 0.026744056 -0.020707294
0001d0 90 12 23 bd e7 c0 83 be a0 ce 6a be a9 ae b5 3b
       -0.039812624 -0.2573311 -0.22930384 0.0055445028
0001e0 b7 83 12 3d 7d 58 c0 bd 14 ac 91 bd 53 03 8a bd
       0.035770144 -0.09391878 -0.071128994 -0.06738915
0001f0 40 05 4b be 36 8e 97 bd 9a a7 3d bd f5 f7 df bd
       -0.19826221 -0.074001715 -0.046302415 -0.10935966
000200 11 0e fe bc 40 7e 6a 3d 1d 1f 21 3d 73 aa 35 3d
       -0.031012567 0.057249308 0.039336313 0.044352006
000210 10 76 30 be be f7 31 be 7e 7a 57 be f0 21 3d be
       -0.17232537 -0.17379662 -0.21042821 -0.18469977
000220 3d 3a 2a be 5a 3f 80 bc c1 db 99 bd 34 8a 19 3d
       -0.16623779 -0.015655208 -0.07512618 0.037485316
000230 27 52 0f be 7a e1 fc bd 10 67 f6 bc e1 8e 23 bd
       -0.13996182 -0.12347694 -0.03007844 -0.03993118
000240 7b ca e9 bc 20 45 ae bc 39 10 bf 3c 80 bc e3 bc
       -0.028538933 -0.021273196 0.023323165 -0.027799845
000250 5a 70 0c bc e9 ff 5f bd 3f 23 1a bd f5 21 b9 bd
       -0.008571709 -0.054687414 -0.03763127 -0.0903968
000260 46 bc e9 bd b9 32 63 be 32 97 a5 3d 5e 23 10 be
       -0.114128634 -0.22187318 0.08085479 -0.14075992
000270 63 df 58 3d fc 21 5c be 17 a3 8a 3d 20 29 57 be
       0.052947413 -0.21497339 0.06769388 -0.21011782
000280 51 ac c8 bd 66 6b bb bd c4 36 31 bd 42 5b 5e be
       -0.09798492 -0.09151344 -0.04326512 -0.217145
000290 fb 2b ad bc 9c 1f fc bc ff c8 31 39 e5 a8 51 bd
       -0.021139136 -0.030776791 0.00016954912 -0.05118646
0002a0 62 b7 7a be 78 c8 bc bd 15 b1 bb bc c0 0c ed bc
       -0.24484017 -0.09217924 -0.022911588 -0.028936744
0002b0 c4 3f 59 3d e4 1e 6c be c3 17 d3 3d a2 d5 62 bb
       0.053039327 -0.23058659 0.103072666 -0.0034612198
0002c0 94 de c0 bd 2a 80 af bd 45 07 45 bd bd c0 8f bd
       -0.094174534 -0.08569367 -0.048102636 -0.07019184
0002d0 71 8a 0d be a4 0e 78 3b 8d 65 a8 bc 68 79 b3 3b
       -0.13822342 0.0037850523 -0.020556236 0.0054771192
0002e0 a5 99 19 be 04 af c0 bc 70 8b 82 bd dc f6 17 bd
       -0.15000017 -0.023520954 -0.06374252 -0.037100658
0002f0 6d d1 c3 3b 8b 2b 19 be 0c 77 0f 39 b1 73 89 be
       0.0059758932 -0.14958017 0.00013681891 -0.26846078
000300 65 e5 85 bd 16 d7 36 be 41 9b 84 bd f6 53 75 be
       -0.06537894 -0.17855486 -0.06474925 -0.2395781
000310 4e 3e 16 be 55 76 34 3a fe db 9c bd 57 7e 8b 3d
       -0.14672205 0.0006884088 -0.07659148 0.06811207
000320 b5 ff 88 3c de 3a cc 3c 46 51 c7 bc 44 55 92 bd
       0.016723493 0.024930414 -0.024330746 -0.071451694
000330 50 c7 34 3d 14 32 62 bd 4b 4e fb bd 24 0c 56 be
       0.04413539 -0.05522354 -0.122707926 -0.20903069
000340 11 6f 78 bd 2a 41 f0 bd 8c ca 3c be 1c bc dc bb
       -0.060652796 -0.11731179 -0.1843664 -0.0067362916
000350 b6 f2 8d 3c 4c 0b 74 bc 6c bb 28 be 91 fd b4 3d
       0.017327648 -0.0148952715 -0.16477746 0.088374265
000360 1d 34 ee 3a e7 3d 8c be 3f e2 83 3d 5e d8 46 3d
       0.001817349 -0.27390978 0.064396374 0.048546188
000370 a7 40 98 bd 51 b0 07 bd c7 83 fa bd d2 8b 35 bd
       -0.074342065 -0.033127133 -0.12232166 -0.044322796
000380 2e 4f 57 be dc eb c2 bc bc 32 3a be eb bf 5a be
       -0.21026298 -0.023794107 -0.18183416 -0.21362273
000390 18 de 3f bd 84 54 66 bd 4d b8 b0 3c cd a4 a4 3c
       -0.046842664 -0.056232944 0.021572256 0.020098114
0003a0 77 37 18 3d 57 b9 04 3d 6a 85 b5 3d a3 94 da 3c
       0.03716227 0.032403316 0.08863337 0.026682204
0003b0 39 31 14 be 81 88 6a bb e3 6f 82 3d a2 2b 27 be
       -0.14471902 -0.003578693 0.06368997 -0.16325238
0003c0 94 43 03 be 08 a4 8c bc b5 49 ec 3c ea dd 83 bc
       -0.12818748 -0.01716806 0.02884374 -0.016097028
0003d0 e0 94 3d 3d 84 14 51 bd 22 91 9d bd 9f 67 3a bd
       0.046284556 -0.051044956 -0.076936975 -0.045508977
0003e0 31 e1 69 be 18 64 81 bd b8 db 08 be 0e 12 46 be
       -0.2283981 -0.063179195 -0.13365066 -0.19342825
0003f0 3d ce 1e be eb 58 d3 bd 5e f4 d7 bd 0a 83 31 bd
       -0.15508361 -0.10319694 -0.10544656 -0.04333786

bias f4 [256]
000000 97 f2 f2 bc 8a f9 b0 bd 9a c9 53 bd e3 0a ba bd
       -0.029656691 -0.08641346 -0.051705934 -0.09084108
000010 0b a9 ad bd e5 b9 2b bd 82 c7 76 bd bf a5 60 c0
       -0.08479508 -0.04192533 -0.06024886 -3.5101163
000020 b8 25 95 bd e8 0b ca bc f1 42 b6 bd db de 6a bd
       -0.07282585 -0.02466388 -0.08899487 -0.057341438
000030 5c 46 1d bd fd 49 05 bd 96 49 db bd e9 3b 35 bd
       -0.038397178 -0.032541264 -0.10707395 -0.044246588
000040 2e 53 ca bd cd 1b 9f bd 2d 30 ea bc 13 5c a0 bd
       -0.098791465 -0.077689745 -0.028587425 -0.07830062
000050 c6 5a ae bd f9 07 39 bd 83 1b b6 bd 6f a1 79 bc
       -0.085134074 -0.04517362 -0.08891966 -0.015236243
000060 68 22 81 bd 89 91 a1 bc 74 67 9e bd c9 b3 35 bd
       -0.063053906 -0.019722717 -0.07734576 -0.04436091
000070 b8 46 f0 bd 22 bf 47 bd ad 76 c9 bc 8d 6c fb bc
       -0.117322385 -0.048766263 -0.024592722 -0.03069141
000080 39 d0 98 bd 1b 0d 84 bd 69 ac ea bd 62 fb 6c bf
       -0.0746159 -0.06447812 -0.11458666 -0.9257108
000090 e3 10 aa bc e6 a8 e0 bd 1e cc 70 bd 2f 20 ef bc
       -0.020760005 -0.10969715 -0.05878841 -0.029190151
0000a0 b4 2e 1d bc 6f ba 13 bd eb 26 63 bd 7f 8e 33 c0
       -0.009593654 -0.03606647 -0.055457037 -2.8055723
0000b0 39 00 49 bd 3f 75 a5 bd 79 44 82 bb 9d a9 a0 bd
       -0.049072478 -0.080790035 -0.0039754477 -0.07844851
0000c0 40 01 bf bd a7 44 cc bc ac 5f 94 bd 5c b6 a1 bd
       -0.0932641 -0.02493508 -0.072448105 -0.078961104
0000d0 98 f3 85 bc c8 50 18 bd 6b 6a 9a bd 31 d4 a3 bd
       -0.016351506 -0.037186414 -0.07539829 -0.07999457
0000e0 27 9b 67 bd d6 2a 0a bd 68 5d 91 bc d9 fb da bc
       -0.05654445 -0.033732258 -0.017744735 -0.026731418
0000f0 46 a0 00 be 8d d1 67 bd de e9 87 bc 09 fc 61 bd
       -0.1256114 -0.056596328 -0.016591009 -0.055172
000100 44 7f 83 bd ca 16 ab bd 0f 66 dc bc 3d c9 05 bd
       -0.06420758 -0.08353956 -0.026904134 -0.03266262
000110 ef af f7 ba 35 bb 8e bd d0 50 88 bd dc 64 7f bd
       -0.0018897037 -0.06969301 -0.06656039 -0.062352046
000120 74 4f 9a bd 41 6b 7a 3b 33 fe b0 bd 0c 4b ff bc
       -0.07534686 0.00382109 -0.08642235 -0.031163715
000130 76 de c9 bd d6 2d 69 bd 2a c2 8b bd 4b 87 d6 bd
       -0.09856884 -0.05692848 -0.06824143 -0.10475024
000140 62 22 83 c0 66 88 45 bd f5 5d cc bd d6 0a d1 bc
       -4.097947 -0.048225783 -0.099788584 -0.025517862
000150 e0 e9 bc bf da 39 a9 bd 6f 14 4e bd 7e 88 0e be
       -1.4758873 -0.082629874 -0.050312456 -0.13919255
000160 01 46 0f bc ac 6c 33 c0 b7 4f 34 bc 74 7a 25 bd
       -0.008744718 -2.8035078 -0.011005334 -0.040399984
000170 9b c6 9b bd 0e 18 6a bd de 57 7e bd 9b b1 75 bd
       -0.0760624 -0.057151847 -0.062095515 -0.05998383
000180 43 6c 28 c0 e0 24 13 bd a8 e8 96 bd cf ff 73 bd
       -2.6316078 -0.03592384 -0.073685944 -0.05957013
000190 51 18 a5 bd 93 58 54 bd 2c 1c ca bd 7f 93 38 bd
       -0.080612786 -0.051842283 -0.098686546 -0.04506254
0001a0 52 36 89 bd d5 92 1a be d9 7c fb bd 28 75 2c bd
       -0.06699814 -0.15095074 -0.12279672 -0.042103916
0001b0 6e 7a 42 bd 69 c1 b8 bd 50 98 9c bd c8 d0 8c bd
       -0.04748004 -0.09021265 -0.07646239 -0.06875759
0001c0 5c c0 34 c0 26 87 8a bd f8 a3 9f bd 31 c2 af bd
       -2.8242407 -0.06764059 -0.077949464 -0.08581961
0001d0 fb 47 5e bd 27 5a 9a bd a0 18 84 bd c8 3b b6 bd
       -0.054267865 -0.075367264 -0.06450009 -0.08898121
0001e0 f2 f1 e8 ba 9c 3d e4 bd dd 1d 18 bd 47 8e d0 bc
       -0.0017772301 -0.111445636 -0.037137855 -0.025458468
0001f0 44 0f b9 bc 7b a5 a3 3b 4a d9 57 bd 05 85 a8 bd
       -0.022590287 0.004994092 -0.052697457 -0.082284965
000200 12 78 a8 bd 14 3e 9a bd a1 3d c8 bc cd a0 97 c0
       -0.082260266 -0.07531372 -0.02444345 -4.738379
000210 e6 68 6f bd 92 8d a6 bd c3 3d f4 bc 1d 3b 44 bd
       -0.05844965 -0.08132471 -0.029814607 -0.047907937
000220 cd 00 53 bd 7a 82 bc bd 33 7f 83 c0 86 a7 ed bd
       -0.051514436 -0.09204574 -4.1092772 -0.11604218
000230 f9 42 c7 bc fe 1a 06 bd f0 f9 07 bd 0a aa a9 bc
       -0.024323927 -0.032740586 -0.033197343 -0.020710964
000240 43 c4 8e bd ff e2 3f be 28 74 d0 bc c5 d1 4c bd
       -0.06971028 -0.18738936 -0.025446013 -0.05000474
000250 1d f6 b8 bb 3f 92 2b bd 7b 3e 5d bd 7e 0e 01 bd
       -0.0056445734 -0.041887518 -0.054014664 -0.03150796
000260 0e 16 62 bd 3a 58 8e bd 29 68 6c c0 74 0d e3 bd
       -0.055196814 -0.06950422 -3.6938574 -0.1108655
000270 8d 5e 05 be e9 b9 ce bd 8a d1 ae bd f8 42 99 bc
       -0.1302435 -0.10094053 -0.0853606 -0.018708691
000280 a7 c5 b5 bd 7d dc e6 bc 87 4a c3 bd 23 2f f0 bd
       -0.0887559 -0.028181309 -0.09535699 -0.117277406
000290 9c 76 50 bd b4 8d e9 bc 2e e9 0e be b2 40 54 bd
       -0.050894365 -0.028509952 -0.13956138 -0.05181951
0002a0 58 43 95 bd cf df 26 be e4 c5 52 bf 72 51 6a bd
       -0.072882354 -0.16296314 -0.8233321 -0.05720658
0002b0 82 20 9d bd 7c 15 8e bd 0b 3f 2d c0 82 fb c4 3f
       -0.07672216 -0.069376916 -2.7069728 1.5389254
0002c0 3d d6 8d bd e6 41 12 bc 1e 23 9f 3a 98 4a 75 bd
       -0.06925628 -0.008926844 0.0012141203 -0.05988559
0002d0 eb 8e 13 bd b3 d1 af bd dd 48 04 bd 48 39 c3 bd
       -0.03602497 -0.08584919 -0.03229605 -0.0953241
0002e0 d5 dc ea bc 7b 53 bb bd 8b 81 d2 bd 0b f0 9f bd
       -0.028669754 -0.09146782 -0.102786146 -0.078094564
0002f0 b5 aa f0 bd 1c 3d ab bc 14 c5 49 bb 0b a9 28 bd
       -0.1175131 -0.020903163 -0.0030787634 -0.041176837
000300 ab 5f 84 bd dd 69 5e bc f5 f3 8c bc 12 4b 12 bd
       -0.0646356 -0.013575044 -0.017206172 -0.035716124
000310 4e 40 4d bd ef 25 94 bd 3f cb 6b bd ff 54 c5 bc
       -0.050110154 -0.07233798 -0.057566877 -0.02408838
000320 92 cc a6 bd d8 0c fc bc 6e 9a 87 bd a4 ab d2 bd
       -0.081444874 -0.030767843 -0.06621252 -0.10286644
000330 74 42 c7 bd eb 68 89 bd 5c c6 9a bd 1b 33 6c bd
       -0.09729472 -0.06709465 -0.07557365 -0.057665925
000340 a3 f2 92 bd fe 31 ce bc 79 c5 7c bd 45 89 61 bb
       -0.071751855 -0.025170323 -0.061711762 -0.0034414094
000350 b0 f5 b5 bd 5b a6 07 bd 38 ff 6b be f6 0d 84 bd
       -0.08884752 -0.033117633 -0.23046577 -0.06447975
000360 da 09 d7 bd 85 bb a7 bd 3a 6d 1a bd f6 29 cb bd
       -0.10499926 -0.081900634 -0.037701823 -0.09920113
000370 ef 25 9c bd ce 1b 9d bd 4c 4c c8 bd b9 ad c1 bd
       -0.07624423 -0.07671319 -0.097801775 -0.09456963
000380 18 1d bc bd 01 ca c4 bc d0 55 e0 bd f5 16 a8 bb
       -0.09185237 -0.024022104 -0.109538674 -0.00512969
000390 c3 80 7c bd 7d ae 08 be dc 50 4b bd 0a 81 f8 bc
       -0.061646234 -0.13347812 -0.04963766 -0.030334968
0003a0 af 70 96 bc c1 f4 b4 bd b3 2f 20 bd b4 4f df bd
       -0.018364279 -0.088357456 -0.03910799 -0.10903874
0003b0 82 ac 39 bd ef b9 93 bd c0 7d 42 bd 1b b5 44 bf
       -0.045330532 -0.072131984 -0.047483206 -0.76838845
0003c0 63 4b 39 bd 50 29 a4 bc 0d 28 cb bc 00 d6 21 bd
       -0.04523791 -0.02003923 -0.024799371 -0.039510727
0003d0 53 da 64 bd bd 1e c8 bd 63 84 1b c0 93 a3 cb bd
       -0.055872273 -0.09771488 -2.4299552 -0.09943309
0003e0 b8 bc 64 bd 0c e4 53 bd 24 23 6c bd e9 e7 03 bd
       -0.05584404 -0.051731154 -0.0576507 -0.03220359
0003f0 c5 40 d3 bd 29 0a 9f ba 96 cc 7f bd 81 2f 8e bc
       -0.10315088 -0.0012133765 -0.062450968 -0.017356636

weight f4 [128, 256]
000000 fb 0f 6e bd d4 3b a0 bc fd 67 9a 39 3e 00 92 3d
       -0.05812071 -0.019559778 0.00029450646 0.071289524
000010 1d 5d f1 bc cc 60 1f bd 20 0f bf bc 2d 35 c5 3a
       -0.029463345 -0.038910672 -0.023322642 0.0015045755
000020 7b eb d3 3c 3c 9e d6 ba 84 04 2e 3e 97 74 90 bd
       0.025869122 -0.0016374062 0.1699391 -0.07053488
000030 79 e0 77 bd 09 5f cc 3d 53 52 05 3d f7 c6 8c bc
       -0.06051681 0.09979064 0.032549214 -0.017184718
000040 c7 4b dd 3c 29 b4 1f 3d 35 ab 92 3c 82 5d ea bb
       0.027013673 0.038990173 0.017903903 -0.0071522603
000050 fa 60 56 bd 2b 18 d7 bb cf af d6 3b 7d cf bd bd
       -0.052338578 -0.0065641603 0.0065517197 -0.09268091
000060 9e ee 27 3d 91 99 6c 3d 4f 47 09 3d 5e 00 ec bd
       0.040999047 0.05776364 0.03351527 -0.115235075
000070 19 6a af 3c f6 48 5e 3d 11 ea ac 3c 76 51 2f 3e
       0.021412896 0.0542688 0.021107705 0.17120919
000080 02 97 fc 3c 9e ab b5 3d e9 1a c4 3d 2d c7 ec 3d
       0.030833725 0.08870624 0.09575445 0.11561427
000090 4b e5 6e bd 62 a2 02 ba 68 10 82 3d f5 0e e8 3d
       -0.05832414 -0.00049833034 0.063507855 0.11330978
0000a0 ff 40 50 3d ed 04 67 bc de 6a f4 bd 43 36 1b bf
       0.050843235 -0.0141002955 -0.11934446 -0.6062967
0000b0 52 ba 1d 3e ad cf 52 ba d3 e2 9b 3b 9b da 39 bc
       0.15403107 -0.00080418104 0.004757264 -0.0113436235
0000c0 02 84 47 3d f5 b1 b9 bc 46 d8 ae bc 34 f1 6b be
       0.048709877 -0.022667864 -0.021343362 -0.2304123
0000d0 1b 04 2b bc 08 99 86 3d 94 f8 94 3d 73 a3 2f 3e
       -0.010437991 0.06572157 0.07273975 0.17152195
0000e0 65 3d 32 bd e0 ff 4f 3d 87 10 a1 bc cd b9 cd bb
       -0.04351558 0.05078113 -0.019661201 -0.0062782527
0000f0 8e 3d 1b 3e b5 0a a4 bd 89 1b c7 bc 1f 7d 72 3c
       0.151602 -0.08009855 -0.024305122 0.014800339
000100 69 2f e2 bb ae ca c8 bc 3c 11 8f be 25 61 0a 3c
       -0.0069026244 -0.024510708 -0.27942836 0.008446013
000110 bb 7c 5b bc 1e 86 15 bc 85 35 5c 3d 62 6c 61 3d
       -0.013396437 -0.009126214 0.053761978 0.055035003
000120 ab e1 50 bd f7 c8 e6 3c d1 08 66 bd 90 4c a7 3d
       -0.050996464 0.028172 -0.05616075 0.081689
000130 ae d9 6c 3b 0d 3c 79 bd 97 7d 61 3d b3 01 dd bd
       0.003614049 -0.060848285 0.055051412 -0.1079134
000140 ea 72 f9 3c 5c 64 79 be de 26 1b be d3 ff 43 3c
       0.030450303 -0.2435469 -0.15151545 0.011962849
000150 0f f9 4a be f9 59 66 39 bd b1 99 bd d6 59 e1 bc
       -0.19821571 0.00021968027 -0.07504604 -0.027508657
000160 74 e5 eb 3c f9 cc 13 bf 76 c0 df bc 1e 84 0f be
       0.028795935 -0.5773464 -0.027313452 -0.14015242
000170 30 d9 e9 3c 27 99 ad 3d b2 c4 99 3c e3 2a 86 bd
       0.028545946 0.08476477 0.01877055 -0.06551149
000180 8e e9 2f bf ae 19 34 bc 61 3d c8 bc 1e 2b cc bd
       -0.6871575 -0.010992451 -0.02444333 -0.099691615
000190 e7 ce 39 3d 32 11 9d 3d 60 fd 1b 3e e7 61 13 3d
       0.045363333 0.07669295 0.15233374 0.03598204
0001a0 d8 b9 77 3c 27 1f 02 b8 4d 29 d8 3d f5 12 b5 bd
       0.015119992 -3.1023428e-05 0.105547525 -0.088415064
0001b0 57 ed 03 bd f0 8d 48 bd 8b 4f 7b 39 54 87 b0 bc
       -0.032208767 -0.048963487 0.00023966857 -0.021548904
0001c0 6d d0 3d bf 82 46 06 bd ca c5 00 3d 6b 58 16 bd
       -0.7414616 -0.032782085 0.031438626 -0.036705416
0001d0 3a 5f 5d 3c 49 a0 eb 3d 09 c7 36 be ce 61 86 be
       0.013511473 0.11505181 -0.17849363 -0.26246494
0001e0 3d b7 da bc 24 87 61 3e d9 3b d2 bc 76 5d 20 bd
       -0.026698703 0.22024208 -0.025663303 -0.03915163
0001f0 ec 7b c0 bc b3 6b ab bd a8 b5 da bb f3 90 f9 ba
       -0.02349659 -0.08370151 -0.006674487 -0.0019040391
000200 b7 b7 02 3d 58 63 5a 3c e2 9a 44 3b bf 0d 75 bb
       0.031913485 0.013329349 0.0029999544 -0.0037392227
000210 51 e4 1a bd 69 7a 75 bd df 1c 0e 3d ee fa 75 bd
       -0.037815396 -0.059931193 0.034695502 -0.06005376
000220 50 f1 d7 bb 5c ad fa 3c 28 a1 11 bf 8b 02 14 be
       -0.006590046 0.030600242 -0.5688653 -0.14454095
000230 80 9a 9c 3c 3d 14 53 bd fe 56 e1 bd ca 24 3e 3d
       0.01911664 -0.051532973 -0.110029206 0.046421804
000240 37 e8 bf 3d c6 88 89 bd fc 34 be bb 63 cf 0c 3d
       0.09370463 -0.067155406 -0.005804656 0.034377467
000250 84 6e 3e bd 70 cd 0e bc 23 a4 24 3e d3 bb 8c 3c
       -0.046492115 -0.008715972 0.16078238 0.017179405
000260 8f 79 27 3c 01 3a a8 bd 28 26 1e bf 51 42 b7 3c
       0.010221853 -0.08214188 -0.6177697 0.02237049
000270 1f 65 a3 3d c8 20 e4 ba 14 dd 00 be c9 2c d8 3c
       0.07978272 -0.0017404789 -0.12584335 0.026388543
000280 3f 20 2d 3d cd 53 61 bc 22 a0 1c bd f5 c2 d1 3d
       0.04226708 -0.01375289 -0.038238652 0.10242263
000290 c3 a1 01 bd ab 11 07 3e f4 7c de bd 6c 52 82 bd
       -0.03164841 0.13190334 -0.10863677 -0.06363377
0002a0 f1 1d 3a 3d a7 b1 c5 bd c4 d2 98 bd 13 6c 0a 3d
       0.04543871 -0.09653025 -0.07462075 0.033794474
0002b0 db 5d 89 bd ce 46 b2 bc 2b 1f c2 3c 62 1c c8 bc
       -0.06707355 -0.021762278 0.023696503 -0.024427596
0002c0 d5 0c 94 3d 36 86 0e bd 76 18 94 3d bf ac 75 bd
       0.0722901 -0.034795962 0.07231228 -0.059979197
0002d0 2e d6 1d 3e 94 01 1e bd 0b 0b a2 bc 01 f5 16 3a
       0.15413734 -0.038575724 -0.019780656 0.00057585543
0002e0 f5 83 3a bc 2d 0a ca 3c b1 cc f0 bc cb 34 5e be
       -0.011384 0.024663055 -0.02939448 -0.21699826
0002f0 ec 45 d9 3d 9a 52 43 bd 01 d5 70 bd b6 ae 5f 3c
       0.1060904 -0.047686197 -0.058796886 0.013652494
000300 87 a9 20 3d 08 4e f8 3c 9e 75 ab 3c 03 31 ad ba
       0.039224174 0.030310646 0.020930108 -0.0013213459
000310 19 2a 84 bd 30 f8 40 3d de d6 74 bc 05 3b 90 bd
       -0.06453342 0.04711169 -0.014943806 -0.07042507
000320 82 1e 2b bd f4 23 ff bd 9d a4 59 bc bd d1 b5 bd
       -0.04177714 -0.124580294 -0.013283876 -0.08877895
000330 42 92 5e bd c1 d8 27 3d d6 66 a9 3d 72 ba 1b bd
       -0.0543387 0.040978197 0.082715675 -0.038019605
000340 65 e8 d3 bb 8b 95 c0 bc 07 17 58 bd 8a fe 22 3d
       -0.0064669126 -0.023508808 -0.052756336 0.03979353
000350 29 9c ec 3d eb 89 8a 3d ad 79 e3 bd fd b6 c6 3d
       0.11553223 0.06764587 -0.11107192 0.09702871
000360 e2 e2 ae bd 0d e7 82 3d 76 16 1b bd 4f 6c 6c 3c
       -0.08539368 0.06391726 -0.037863217 0.01443012
000370 4d 50 d0 ba e0 05 a0 3d 07 4b 64 3d 10 b4 c3 bd
       -0.0015893072 0.078136206 0.055735614 -0.095558286
000380 7c ea 0a 3e 83 6e 6d 3d 7a 35 8f bc b5 54 fb bc
       0.13566011 0.05796672 -0.017481554 -0.03068004
000390 e4 d3 cd bc 73 b5 2d 3e 07 d1 86 3d 6d 72 23 be
       -0.025125451 0.16963749 0.065828376 -0.15961619
0003a0 51 75 62 bd 03 29 18 3e 52 0e 5f ba d4 f6 89 bc
       -0.055287663 0.14859395 -0.0008508909 -0.01684133
0003b0 e8 c5 20 bd 0b 8f bd 3d f5 e3 c5 bb 50 1b 4d bb
       -0.039251238 0.09255799 -0.0060391375 -0.0031296797
0003c0 66 57 27 bd be 7e 51 3c c6 bd 41 3c 75 bd 1e 3d
       -0.040854834 0.012786565 0.011825031 0.0387549
0003d0 22 16 17 3e ac 25 2a 3d 40 b2 f2 be cf fd bd be
       0.14754537 0.041539833 -0.4740162 -0.37107703
0003e0 61 93 c9 bc 1e 7e 23 3b 9b 18 a1 3c 8b 6f ab bd
       -0.024606409 0.0024946998 0.019665053 -0.083708845
0003f0 7a 0e 6f bd cf 81 e1 bc 16 14 ce bc f2 25 ea 3c
       -0.058363415 -0.027527718 -0.025156062 0.028582547

bias f4 [128]
000000 6c 7f 71 3c d2 8d 3a bb 55 6d 4f 3c d6 cf ff bd
       0.014739852 -0.002846588 0.012660344 -0.124908134
000010 c5 b2 53 bc d5 36 ef 3a bf 8b 05 3c 0c ea 58 c0
       -0.01292104 0.0018250594 0.008150994 -3.389285
000020 9e bc d6 b7 ae a6 a8 bc 1e c4 9a c0 f8 60 ba bb
       -2.559862e-05 -0.020587292 -4.83644 -0.005687829
000030 2a 9d b3 3c 6f 97 72 3c 7d a5 ce ba ff 82 32 bd
       0.021925528 0.014806612 -0.0015765872 -0.04358196
000040 ff 8b 31 bf e5 25 3b bc 63 9d b0 ba cf d1 95 bb
       -0.6935424 -0.011422609 -0.0013474639 -0.0045721303
000050 c6 12 6c bb d5 71 57 3b 35 34 c8 bb 4b 76 e3 3a
       -0.0036021932 0.0032874246 -0.006109739 0.001735398
000060 93 e8 ca bc eb a0 e4 c0 69 53 31 bc 11 0f 7c bb
       -0.024769103 -7.1446433 -0.010823109 -0.0038461129
000070 e1 47 cc bb e2 f5 81 3c 0e 8c 97 38 e8 2d 0f be
       -0.0062341546 0.015864316 7.226328e-05 -0.13982356
000080 d0 32 03 3c 11 6f 88 bb 41 a8 83 bf cb f3 fb c0
       0.00800772 -0.004163631 -1.0285722 -7.87351
000090 99 8a 24 bf df eb 51 be 68 50 3a bc 18 19 8c be
       -0.64273983 -0.20500134 -0.011371709 -0.27362895
0000a0 aa ef 21 bc e6 6f 62 bd c0 61 5b bb 34 0b 3d bb
       -0.0098838005 -0.055282496 -0.0033475012 -0.002884579
0000b0 ca 3d bd 3c e0 e1 31 c1 76 01 6c bc 57 7a e4 3b
       0.023100752 -11.117645 -0.014404645 0.006972592
0000c0 40 f1 20 be 6b 73 ca bc 07 fc d3 bc bf 6b e4 bc
       -0.1571703 -0.024713239 -0.025877012 -0.027883409
0000d0 ee 94 5c c1 a5 a2 50 bc a7 08 9f be e5 91 9d 3d
       -13.78636 -0.01273409 -0.3106129 0.07693843
0000e0 40 3f c4 3b 09 a1 3f bd 59 8b ff 3a bb 1a 8a bd
       0.0059889853 -0.046784434 0.0019496485 -0.0674338
0000f0 86 08 a5 be 8e 40 5e ba b0 26 f5 bd 93 59 4a be
       -0.32233065 -0.00084782473 -0.1197027 -0.19760732
000100 1e fe af bb 98 92 c3 bb c7 32 aa be d7 93 92 c0
       -0.0053708693 -0.005968403 -0.33241865 -4.580547
000110 9f ca 54 3b d4 4a 38 3c 53 cf 6b 3c 2f 80 bb 3c
       0.0032469404 0.011248309 0.014392692 0.022888271
000120 3b 05 8e bc 8a ed bf bb 65 f6 9a 3b 15 1e 8a 3c
       -0.017336478 -0.0058571743 0.0047290795 0.016860047
000130 68 56 0e 3a b1 b0 82 3c 0e 2b 56 bd 56 3a 07 bc
       0.00054297457 0.015953394 -0.052287154 -0.008253654
000140 41 99 03 bc 3f 1f 3c 3c 68 68 52 be 74 71 67 3b
       -0.008032144 0.011482059 -0.2054764 0.0035315426
000150 55 93 e9 ba 43 4e a6 3b 4d be ac bc 17 8e 12 bc
       -0.0017820398 0.0050752475 -0.021086836 -0.00894501
000160 26 66 75 bd c2 b1 94 bb 46 4f 23 bc 74 a2 10 3b
       -0.05991187 -0.004537792 -0.009967631 0.0022069486
000170 4e be 19 3c a5 1a c4 bc 4c f9 39 bc db 8f 40 bc
       0.009383751 -0.023938486 -0.011350941 -0.011753048
000180 0c ae 3e bf 01 98 a0 3b a3 79 f6 bb 37 86 f7 bf
       -0.74484324 0.004900933 -0.0075218244 -1.9337834
000190 0c 45 db 3b 1d 0f 6b c0 2f 04 e9 3a 8d 8d fc bf
       0.0066915806 -3.6727974 0.0017777736 -1.9730698
0001a0 81 cc 3c bf b0 eb f4 39 e3 78 cd bb f3 30 09 bc
       -0.7374955 0.00046714908 -0.0062705143 -0.008373487
0001b0 12 b4 0f bc fa 6f 1a 3b 43 0d 5f bc 5f 34 59 bc
       -0.008770959 0.0023565278 -0.013614002 -0.013257115
0001c0 2f 49 36 bb f3 26 3a bc 4c 0d 6f bc 59 04 db 3d
       -0.0027814617 -0.011361825 -0.014590573 0.106941886
0001d0 82 8b be bb 2e 68 c9 bc 46 a0 07 3c 83 0d 3a 3b
       -0.0058149705 -0.02458581 0.008277958 0.0028389401
0001e0 a3 da b3 3d 86 de 5c bc eb af 8e bb 94 56 22 39
       0.08781936 -0.013480788 -0.004354467 0.00015481777
0001f0 99 70 60 be e8 03 28 3c b4 0b ca be 2e eb 0a 3c
       -0.21917953 0.010254838 -0.39462054 0.008478923

weight f4 [50, 128]
000000 a2 6e 2c 3d 56 c7 16 ba 01 98 94 3d 11 02 58 bc
       0.042097695 -0.0005751749 0.07255555 -0.013184086
000010 1d 50 55 3c 62 8d cc 3b 50 55 91 3c ed 45 9c 3f
       0.013019589 0.00624244 0.017740875 1.220884
000020 d6 df 68 3b 2f e1 03 3d c1 7a 87 c0 fb 4c a0 3d
       0.0035533807 0.032197174 -4.2337346 0.07827183
000030 f5 c3 72 bc 99 83 85 3c aa 03 4c 3c 63 36 9d 3c
       -0.014817228 0.016298102 0.012452045 0.019190973
000040 0a 80 e9 bf ab 57 f7 bc e4 3e 2f 3c ca ca 85 bc
       -1.82422 -0.03019317 0.010696147 -0.016332049
000050 e3 21 9a 3b 32 54 83 bc cb cd be bc b0 12 48 3d
       0.0047037466 -0.016031358 -0.02329149 0.048845947
000060 f2 8c 7d bf 17 d3 a2 3f 5c c5 90 bc b2 d9 b7 bb
       -0.9904319 1.272067 -0.017672233 -0.005610668
000070 b5 7a 1d bc 45 1e 23 bc b5 00 02 3d 02 86 ab 3d
       -0.009611775 -0.009955947 0.031738956 0.08375169
000080 23 49 a4 3c 42 e6 54 3d bb 1a 88 3f ae ad 46 3e
       0.020054406 0.051977403 1.0633157 0.19402191
000090 4a dd 31 3c b2 6c 2f 3d e4 37 6c 3c da 76 b7 be
       0.010855982 0.04282827 0.014417622 -0.35832864
0000a0 33 02 a4 3e a7 94 a1 bc 88 cb fc 39 91 02 1a bc
       0.32032928 -0.019724203 0.00048216828 -0.009400026
0000b0 10 df 07 3d 91 5f 10 c0 9e ca 64 ba ea c2 ff 3c
       0.033171713 -2.255833 -0.0008727702 0.031220872
0000c0 61 8e 1a 3e c9 55 bc bd bc 7e 94 bc 54 75 3e 3b
       0.15093376 -0.0919605 -0.018126838 0.0029061632
0000d0 02 4c 3a 40 19 f8 8a 3c 17 32 6e 3f c3 9c 88 be
       2.9108891 0.016964005 0.9304518 -0.266821
0000e0 23 37 94 bc bb 12 b3 bd db 96 8f 3b 4c 4b 0a bd
       -0.018092697 -0.08743807 0.004381997 -0.033763215
0000f0 56 79 41 be a3 e0 b1 39 21 d4 89 3e 5f b4 97 3d
       -0.18893942 0.00033927438 0.26919654 0.0740745
000100 7f 9a 83 3a 02 f3 04 3b 3e 65 57 3f f8 ba 08 3e
       0.001004055 0.0020286446 0.8413886 0.13352573
000110 72 32 27 bb 8b bc a9 3c bc 53 3f 3c 94 1f 38 bc
       -0.0025512245 0.020719787 0.011677679 -0.011237998
000120 5a c0 f9 3b 4e 67 b5 bc ed 3a b6 3a 4b 4a 13 3f
       0.007621807 -0.022143986 0.0013903059 0.5753524
000130 70 66 d7 3c c9 29 8c 3c 14 0b 1b be 83 42 80 3b
       0.026293963 0.017109768 -0.15140945 0.003914179
000140 d1 c8 bd 3c 7b 93 05 bb f2 80 d7 bd 75 44 54 bd
       0.023167046 -0.0020382095 -0.10522641 -0.0518231
000150 be 39 47 3e de d4 c2 3c f0 ba e8 bc 46 79 e2 bc
       0.1945562 0.023783144 -0.028409451 -0.027645718
000160 0e a4 d6 bd 84 f5 43 3c 84 68 bf 3c e6 0d 8b bc
       -0.1048051 0.011960391 0.023365267 -0.0169744
000170 95 0b 7f 3c 26 b6 3a be ca e6 f6 bc 01 51 82 bc
       0.015566726 -0.18233547 -0.030139346 -0.015907766
000180 03 e8 0d 40 49 77 60 3d e3 0b d9 3c e3 00 e5 bc
       2.2172859 0.05480126 0.026494926 -0.027954524
000190 9a c5 d3 3c 09 2a 34 3e 4d 6c 04 3d 20 0f ee be
       0.02585106 0.1759416 0.032329846 -0.46495914
0001a0 57 26 09 bf f2 c1 a9 bb 16 c1 df bd 4b d7 97 bc
       -0.53574127 -0.005180591 -0.109255 -0.018535277
0001b0 96 6c 2f bd b3 e4 83 3d 9d 85 d6 bc 44 a9 aa 3c
       -0.042828165 0.06440105 -0.026186759 0.020832665
0001c0 de 63 7a bc b4 a8 01 bc f2 59 9e 3d 5b fe 9f be
       -0.015282599 -0.007913757 0.077319995 -0.31248745
0001d0 9c 0a 0c 3d c9 3a 34 3c ab a8 dd bc 9c 3d df bc
       0.034189805 0.011000344 -0.027057966 -0.027251057
0001e0 4d 5c 8c be 3d 23 45 bc d9 54 46 ba f4 5c 90 bc
       -0.2741417 -0.012032327 -0.0007565744 -0.017622449
0001f0 1c 6c a3 3f c3 f6 6b 3c e9 67 c4 be ab 9b 0e 3d
       1.2767367 0.014402094 -0.38360527 0.034816425
000200 5d 0a 12 bc b9 c6 b9 3c cb 78 de bd 60 9b 27 be
       -0.008913604 0.022677766 -0.10862883 -0.16367865
000210 ef bf f1 bb 1d 20 a7 3c e3 97 7a 3d 11 20 b9 3f
       -0.0073776166 0.020401055 0.061180007 1.4462911
000220 8c fe 19 bd e6 4b 43 3d 90 14 90 be 3e f2 9e 3e
       -0.03759627 0.047679804 -0.28140688 0.3104419
000230 8f 69 45 bc b2 e7 86 bb 3a 6c 2b bc 4f ae 3e 3e
       -0.012049093 -0.0041169757 -0.010462815 0.18621181
000240 03 2d da bf 02 2c fe 3b 23 93 36 bb 5d 71 72 bd
       -1.7044986 0.007756711 -0.0027858696 -0.059190143
000250 06 8b 52 3c 80 ec d7 bc 08 b6 1d 3c 48 b3 08 bc
       0.012850529 -0.02635789 0.009625919 -0.008343525
000260 7d af 04 bf 3b 17 b4 3f 9e 84 55 bc 25 6d 82 bb
       -0.51830274 1.4069589 -0.013032107 -0.003980296
000270 fc c6 60 bb 79 0b dc bc c8 d3 0e bd 3d 4b 23 3e
       -0.0034298291 -0.02686094 -0.03486994 0.1594667
000280 76 ed d0 bb b2 fd cd 3c 43 ac 7c 3f db 5a 74 bf
       -0.006375964 0.025145385 0.9870035 -0.95451134
000290 ff 91 ee bd 6b 58 0d be a0 b6 ad bb fd e7 87 bf
       -0.1164894 -0.1380326 -0.0053013116 -1.0617672
0002a0 b6 a9 98 3e 4e 0b b1 be 61 32 cd bc 99 18 f7 3c
       0.2981698 -0.34578937 -0.025048437 0.030163096
0002b0 37 07 8d bc b9 2b d0 bf d1 e3 0e bd 77 e9 3a bc
       -0.017215354 -1.6263343 -0.03488523 -0.011408201
0002c0 03 2b 9d be 32 d9 89 3c ae fd f4 3c c9 4e 01 3c
       -0.30696878 0.0168272 0.02990612 0.007892319
0002d0 89 e6 73 bf c6 26 0d 3d c8 01 37 3e ea a7 5e 3d
       -0.95273644 0.034460805 0.17871773 0.054359354
0002e0 ff d1 39 3c 17 50 9c be e3 65 7f bd 6c 93 6d bd
       0.011341571 -0.30529854 -0.062353026 -0.05800192
0002f0 9c 80 89 3e fa 10 6d 3c df a1 b6 bd e2 f0 eb 3e
       0.26855934 0.01446938 -0.08917593 0.46082217
000300 ef 7b 4b bc 38 5a 69 bc ca a6 0a 3e 68 2f ee bf
       -0.012419685 -0.014242701 0.13540187 -1.8608217
000310 69 69 39 bc 7c cf 91 b8 d1 f9 a4 ba df 7e 3f 3c
       -0.011316636 -6.952786e-05 -0.0012586658 0.011687963
000320 5e bf c7 3b 81 f4 da bc e2 d7 be bb 44 7c 88 bf
       0.006095811 -0.026727917 -0.005824075 -1.0662923
000330 e4 b2 33 3d ec c1 ed bb b6 9b 3f bc 9f 24 28 3d
       0.043871775 -0.0072557833 -0.011694839 0.04105055
000340 49 e8 02 3d 83 d9 fc bb 38 57 f9 3d 07 9c 43 bd
       0.031959806 -0.007716359 0.12174839 -0.04775622
000350 c7 18 30 3e 10 2e a4 3b bb 67 d5 3b 35 5e 46 bd
       0.17196952 0.005010374 0.00651261 -0.048429687
000360 ac 19 78 bd 97 a5 c3 bb 34 cc 04 bd 43 bb bd 3c
       -0.060571358 -0.0059706676 -0.032421306 0.023160582
000370 d8 09 9c 3c 89 c0 10 bf 7b a6 00 ba 06 ca e4 3c
       0.019047663 -0.56543785 -0.000490762 0.027928364
000380 c3 5b c3 3f 4d 35 f0 3c b5 2e 93 3c ae 7a 1f be
       1.5262378 0.02932229 0.017966608 -0.15574142
000390 92 1a 28 bc e2 87 2d bd 9b 23 8a 3b 77 7f 8c be
       -0.010260241 -0.042365916 0.0042156703 -0.27440998
0003a0 88 e1 de be 23 54 25 bd 87 77 3c 38 b4 73 24 3d
       -0.43531442 -0.040363442 4.493401e-05 0.040149406
0003b0 fb fe ac bc 16 ce de 3c b8 dd f6 bc 5f a1 21 3c
       -0.021117678 0.027197879 -0.03013502 0.009865134
0003c0 97 9e 61 bc 59 d9 26 bb 7f ad 21 3e 2f 77 5e 3f
       -0.013770721 -0.002545914 0.1578884 0.8690061
0003d0 90 a0 04 bd 9b 79 c5 3c 6f 5d 05 3b 33 b2 b0 3c
       -0.032379687 0.024105838 0.002034988 0.021569347
0003e0 5a ef 2a 3e d7 3f 8d 3c 2f 2e f9 bc 42 8d 6d bd
       0.16692868 0.017242355 -0.03041753 -0.057996042
0003f0 07 df 01 bf 9b 16 b6 3c 6d 13 a5 be b1 09 96 3c
       -0.5073094 0.022227576 -0.32241383 0.018315168

bias f4 [50]
000000 d4 93 c9 3d 2e 9a 38 be 7c c6 00 3e 7a 39 c4 be
       0.09842649 -0.18027565 0.12575716 -0.383251
000010 79 7d 90 3e 63 d2 78 be 34 dc 13 3f a7 d8 a6 bd
       0.28220728 -0.24299006 0.5775788 -0.08146792
000020 1a 87 90 3e 82 d8 65 be 73 aa 30 be 9d 16 3b be
       0.28228074 -0.22445872 -0.17252521 -0.18270345
000030 46 21 14 3e 1c 58 9a be cf 06 73 3e 69 d5 6c be
       0.14465818 -0.30145347 0.23733066 -0.23128285
000040 be 37 12 bc 0b be 6e bd 69 89 89 3e 84 c7 b3 3c
       -0.008924423 -0.058286708 0.26862648 0.021945722
000050 da a3 d5 bd 94 80 eb bd ee 28 b2 3d 25 c2 89 3d
       -0.10431643 -0.11499134 0.08699213 0.06726483
000060 1d 15 14 bd 73 33 e2 3d d9 e4 a9 3e 3d b4 22 be
       -0.036152948 0.110449694 0.3318241 -0.15889068
000070 64 d8 29 be 0d ea 4a be d2 2e 46 bc 6b 41 64 3e
       -0.16586453 -0.19815846 -0.012096124 0.2229058
000080 c7 86 78 3e 38 78 c5 3d c3 06 24 be f1 27 43 3d
       0.24270163 0.096420705 -0.16018204 0.047645513
000090 6b 64 91 3d f1 3f 51 3e fd 89 4a 3e 8f c1 dd bd
       0.07099231 0.20434548 0.19779201 -0.10827934
0000a0 3d 39 da 3c 25 63 c5 bd 63 75 5b be b4 74 92 3d
       0.026638621 -0.09638051 -0.21431498 0.071511656
0000b0 d6 2f cc bd 23 42 89 be 3c 92 00 be 21 1c 91 bc
       -0.099700615 -0.2680827 -0.12555784 -0.017713608
0000c0 c9 7c c3 bd d8 32 4d 3e
       -0.09545285 0.20038927
